…
ts":[{"output_type":"execute_result","data":{"text/plain":["<All keys matched successfully>"]},"metadata":{},"execution_count":9}]},{"cell_type":"code","source":["adv_ens_imdn.to(device)\n","adv_ens_imdn.eval()"],"metadata":{"colab":{"base_uri":"https://localhost:8080/"},"id":"Rb4YxtSCNbnL","executionInfo":{"status":"ok","timestamp":1672225417358,"user_tz":-540,"elapsed":18,"user":{"displayName":"임유열","userId":"06869685755215993021"}},"outputId":"f7702600-5650-4540-dde8-38da6cb7f4a8"},"execution_count":null,"outputs":[{"output_type":"execute_result","data":{"text/plain":["IMDN(\n","  (fea_conv): Conv2d(3, 64, kernel_size=(3, 3), stride=(1, 1), padding=(1, 1))\n","  (IMDB1): IMDModule(\n","    (c1): Conv2d(64, 64, kernel_size=(3, 3), stride=(1, 1), padding=(1, 1))\n","    (c2): Conv2d(48, 64, kernel_size=(3, 3), stride=(1, 1), padding=(1, 1))\n","    (c3): Conv2d(48, 64, kernel_size=(3, 3), stride=(1, 1), padding=(1, 1))\n","    (c4): Conv2d(48, 16, kernel_size=(3, 3), stride=(1, 1), padding=(1, 1))\n","    (act): LeakyReLU(negative_slope=0.05, inplace=True)\n","    (c5): Conv2d(64, 64, kernel_size=(1, 1), stride=(1, 1))\n","    (cca): CCALayer(\n","      (avg_pool): AdaptiveAvgPool2d(output_size=1)\n","      (conv_du): Sequential(\n","        (0): Conv2d(64, 4, kernel_size=(1, 1), stride=(1, 1))\n","        (1): ReLU(inplace=True)\n","        (2): Conv2d(4, 64, kernel_size=(1, 1), stride=(1, 1))\n","        (3): Sigmoid()\n","      )\n","    )\n","  )\n","  (IMDB2): IMDModule(\n","    (c1): Conv2d(64, 64, kernel_size=(3, 3), stride=(1, 1), padding=(1, 1))\n","    (c2): Conv2d(48, 64, kernel_size=(3, 3), stride=(1, 1), padding=(1, 1))\n","    (c3): Conv2d(48, 64, kernel_size=(3, 3), stride=(1, 1), padding=(1, 1))\n","    (c4): Conv2d(48, 16, kernel_size=(3, 3), stride=(1, 1), padding=(1, 1))\n","    (act): LeakyReLU(negative_slope=0.05, inplace=True)\n","    (c5): Conv2d(64, 64, kernel_size=(1, 1), stride=(1, 1))\n","    (cca): CCALayer(\n","      (avg_pool): AdaptiveAvgPool2d(output_size=1)\n","      (conv_du): Sequential(\n","        (0): Conv2d(64, 4, kernel_size=(1, 1), stride=(1, 1))\n","        (1): ReLU(inplace=True)\n","        (2): Conv2d(4, 64, kernel_size=(1, 1), stride=(1, 1))\n","        (3): Sigmoid()\n","      )\n","    )\n","  )\n","  (IMDB3): IMDModule(\n","    (c1): Conv2d(64, 64, kernel_size=(3, 3), stride=(1, 1), padding=(1, 1))\n","    (c2): Conv2d(48, 64, kernel_size=(3, 3), stride=(1, 1), padding=(1, 1))\n","    (c3): Conv2d(48, 64, kernel_size=(3, 3), stride=(1, 1), padding=(1, 1))\n","    (c4): Conv2d(48, 16, kernel_size=(3, 3), stride=(1, 1), padding=(1, 1))\n","    (act): LeakyReLU(negative_slope=0.05, inplace=True)\n","    (c5): Conv2d(64, 64, kernel_size=(1, 1), stride=(1, 1))\n","    (cca): CCALayer(\n","      (avg_pool): AdaptiveAvgPool2d(output_size=1)\n","      (conv_du): Sequential(\n","        (0): Conv2d(64, 4, kernel_size=(1, 1), stride=(1, 1))\n","        (1): ReLU(inplace=True)\n","        (2): Conv2d(4, 64, kernel_size=(1, 1), stride=(1, 1))\n","        (3): Sigmoid()\n","      )\n","    )\n","  )\n","  (IMDB4): IMDModule(\n","    (c1): Conv2d(64, 64, kernel_size=(3, 3), stride=(1, 1), padding=(1, 1))\n","    (c2): Conv2d(48, 64, kernel_size=(3, 3), stride=(1, 1), padding=(1, 1))\n","    (c3): Conv2d(48, 64, kernel_size=(3, 3), stride=(1, 1), padding=(1, 1))\n","    (c4): Conv2d(48, 16, kernel_size=(3, 3), stride=(1, 1), padding=(1, 1))\n","    (act): LeakyReLU(negative_slope=0.05, inplace=True)\n","    (c5): Conv2d(64, 64, kernel_size=(1, 1), stride=(1, 1))\n","    (cca): CCALayer(\n","      (avg_pool): AdaptiveAvgPool2d(output_size=1)\n","      (conv_du): Sequential(\n","        (0): Conv2d(64, 4, kernel_size=(1, 1), stride=(1, 1))\n","        (1): ReLU(inplace=True)\n","        (2): Conv2d(4, 64, kernel_size=(1, 1), stride=(1, 1))\n","        (3): Sigmoid()\n","      )\n","    )\n","  )\n","  (IMDB5): IMDModule(\n","    (c1): Conv2d(64, 64, kernel_size=(3, 3), stride=(1, 1), padding=(1, 1))\n","    (c2): Conv2d(48, 64, kernel_size=(3, 3), stride=(1, 1), padding=(1, 1))\n","    (c3): Conv2d(48, 64, kernel_size=(3, 3), stride=(1, 1), padding=(1, 1))\n","    (c4): Conv2d(48, 16, kernel_size=(3, 3), stride=(1, 1), padding=(1, 1))\n","    (act): LeakyReLU(negative_slope=0.05, inplace=True)\n","    (c5): Conv2d(64, 64, kernel_size=(1, 1), stride=(1, 1))\n","    (cca): CCALayer(\n","      (avg_pool): AdaptiveAvgPool2d(output_size=1)\n","      (conv_du): Sequential(\n","        (0): Conv2d(64, 4, kernel_size=(1, 1), stride=(1, 1))\n","        (1): ReLU(inplace=True)\n","        (2): Conv2d(4, 64, kernel_size=(1, 1), stride=(1, 1))\n","        (3): Sigmoid()\n","      )\n","    )\n","  )\n","  (IMDB6): IMDModule(\n","    (c1): Conv2d(64, 64, kernel_size=(3, 3), stride=(1, 1), padding=(1, 1))\n","    (c2): Conv2d(48, 64, kernel_size=(3, 3), stride=(1, 1), padding=(1, 1))\n","    (c3): Conv2d(48, 64, kernel_size=(3, 3), stride=(1, 1), padding=(1, 1))\n","    (c4): Conv2d(48, 16, kernel_size=(3, 3), stride=(1, 1), padding=(1, 1))\n","    (act): LeakyReLU(negative_slope=0.05, inplace=True)\n","    (c5): Conv2d(64, 64, kernel_size=(1, 1), stride=(1, 1))\n","    (cca): CCALayer(\n","      (avg_pool): AdaptiveAvgPool2d(output_size=1)\n","      (conv_du): Sequential(\n","        (0): Conv2d(64, 4, kernel_size=(1, 1), stride=(1, 1))\n","        (1): ReLU(inplace=True)\n","        (2): Conv2d(4, 64, kernel_size=(1, 1), stride=(1, 1))\n","        (3): Sigmoid()\n","      )\n","    )\n","  )\n","  (c): Sequential(\n","    (0): Conv2d(384, 64, kernel_size=(1, 1), stride=(1, 1))\n","    (1): LeakyReLU(negative_slope=0.05, inplace=True)\n","  )\n","  (LR_conv): Conv2d(64, 64, kernel_size=(3, 3), stride=(1, 1), padding=(1, 1))\n","  (upsampler): Sequential(\n","    (0): Conv2d(64, 12, kernel_size=(3, 3), stride=(1, 1), padding=(1, 1))\n","    (1): PixelShuffle(upscale_factor=2)\n","  )\n",")"]},"metadata":{},"execution_count":10}]},{"cell_type":"code","source":["cls_model = models.inception_v3(pretrained = True)"],"metadata":{"colab":{"base_uri":"https://localhost:8080/"},"id":"ZCugADy4UBoi","executionInfo":{"status":"ok","timestamp":1672225418826,"user_tz":-540,"elapse
…
